best_model.pth (torch, 950690 bytes, 36 tensors)

herb_embedding.weight f4 [64, 1201]
0	0x3c50063b	0.012696798
1	0xbc9028bc	-0.017597549
2	0x3beada07	0.007167104
3	0x3cf4b288	0.029870287
4	0x3c76acbb	0.015055831
5	0x3c12b779	0.008954876
6	0xbd2a7ad5	-0.041621048
7	0x3ce40c8f	0.02783802
8	0x3d5b0a83	0.05347682
9	0x3c753fba	0.014968807
10	0x3c337030	0.010952041
11	0x3c53dd0c	0.01293112
12	0x3c3e9e38	0.011634402
13	0xbccf385c	-0.025295429
14	0x3b417e4d	0.0029524744
15	0xbd051f1f	-0.032500383
16	0x3d0cf190	0.03441006
17	0xbbec58cb	-0.0072127334
18	0xbc17f63f	-0.009275018
19	0x3d9dfa13	0.077137135
20	0xbc37b39e	-0.011212258
21	0xbd1e64fa	-0.038670518
22	0x3ccfac7d	0.025350804
23	0xbcd64a36	-0.026158433
24	0xbd1a4a1e	-0.03766834
25	0xbd12877d	-0.035773743
26	0xbc2a757e	-0.010403989
27	0x3c84914f	0.01618257
28	0xbd7daf95	-0.061935026
29	0xbcad4024	-0.021148749
30	0x3cd2d6ea	0.025737245
31	0xbca2e957	-0.019886656
32	0x3d38502b	0.04499833
33	0xbc50c13f	-0.012741386
34	0xbce4ec0a	-0.027944583
35	0x3d06b23d	0.032884825
36	0xbd313a72	-0.04326863
37	0x3cd7c45e	0.026338752
38	0xbc7630f6	-0.015026322
39	0xbd533032	-0.051559635
40	0xbc387f28	-0.011260785
41	0xbb42e8f1	-0.0029740895
42	0x3da89c8f	0.08232986
43	0x3da4ded9	0.08050317
44	0xba2add05	-0.000651792
45	0xbc50dba5	-0.01274768
46	0x3cc27a12	0.023739848
47	0xbca104c7	-0.019655598
48	0x3d0d306e	0.034470014
49	0xbccf425c	-0.025300197
50	0xbd0bc78e	-0.034125857
51	0x3c40ed07	0.011775262
52	0xbd363b40	-0.0444901
53	0x3d95be3b	0.07311674
54	0xbc21291e	-0.009836463
55	0xbb64e608	-0.0034927148
56	0x3d55ebb2	0.05222673
57	0xbce73a81	-0.028226139
58	0x3cd11cd9	0.025526451
59	0xbb601620	-0.0034192875
60	0xbcf8e469	-0.030382352
61	0xbc98dfa5	-0.01866133
62	0xbbe6de73	-0.007045561
63	0xb971132c	-0.00022990693
64	0xbbb2b530	-0.005453728
65	0x3c8a2366	0.016862582
66	0x3c890544	0.016726144
67	0x3c5fbaf2	0.013655411
68	0xba01046c	-0.00049216184
69	0xbd927429	-0.07151062
70	0x3cf9d79d	0.03049832
71	0x3d1c0218	0.038087934
72	0x3d67da6e	0.056604795
73	0xbd70c2ec	-0.058779642
74	0xbcacd6ca	-0.021098513
75	0xbcd5f94f	-0.026119856
76	0x3d349169	0.044083986
77	0x3d63d27b	0.05562065
78	0x3d34bd60	0.044125915
79	0xbc6d3e35	-0.014480163
80	0xbbbea394	-0.00581784
81	0x3c947219	0.018120812
82	0xbb87808e	-0.004135198
83	0x3b5e2ea3	0.003390231
84	0x3bf32826	0.0074205576
85	0xbcdb14d8	-0.026743338
86	0x3b6b0bbe	0.0035865153
87	0xbced698f	-0.028980998
88	0xbc7b571e	-0.015340595
89	0x3c9ff998	0.019528195
90	0x3c217182	0.0098537225
91	0xbd0b9cae	-0.03408497
92	0x3d323d0c	0.04351525
93	0x3b82169d	0.003969981
94	0xbd312c33	-0.043255042
95	0xbd3cc8db	-0.04608999
96	0xbc56b4c9	-0.013104626
97	0xbc10d159	-0.008838975
98	0x3c2e82f1	0.010651336
99	0xbcff0e5f	-0.031134782
100	0xbcbc409a	-0.022980023
101	0x3d074410	0.033023894
102	0xbb8ca878	-0.004292544
103	0xbda2ba2c	-0.07945666
104	0x3c3c0bea	0.01147745
105	0xba909ac4	-0.0011032452
106	0x3c31267f	0.010812401
107	0x3acdc1ec	0.0015698052
108	0xbcb104c4	-0.021608718
109	0x3d1a3766	0.03765049
110	0x3ce44f03	0.027869707
111	0x3cda125c	0.026620083
112	0x3d806f98	0.06271285
113	0xbce7a158	-0.028275177
114	0xbd18681a	-0.037208654
115	0xbcedf5f1	-0.029047938
116	0x3c831188	0.01599957
117	0x3ce4e379	0.027940499
118	0x3b95d14d	0.0045720697
119	0xbd0da83c	-0.03458427
120	0xbc0d994b	-0.008642505
121	0xbbb1d0e7	-0.0054265144
122	0xbc88005b	-0.016601732
123	0x3c9f1432	0.01941881
124	0xbcac806a	-0.021057326
125	0x3ca515bc	0.020151965
126	0xbc819fe4	-0.015823312
127	0xbb6c2391	-0.0036031941
128	0x3d8b5c9f	0.068047754
129	0x3c27035d	0.010193673
130	0x3d1112b1	0.035418216
131	0x3d301b66	0.04299488
132	0xbd9d8f3f	-0.07693338
133	0x3d0e5474	0.03474851
134	0x3ce8ea1f	0.02843195
135	0xbce4f9a1	-0.027951064
136	0xbd02d6b9	-0.031943057
137	0xbc8cfbe9	-0.017209964
138	0x3d6bc214	0.057558134
139	0x3b857968	0.0040733106
140	0x3c8aac0a	0.016927738
141	0xbcbd2049	-0.023086684
142	0x3d31f886	0.0434499
143	0xbc63aa6e	-0.013895614
144	0xbc518d63	-0.012790057
145	0xbd1591de	-0.036516063
146	0x3cfdeef6	0.030997735
147	0x3d7efe24	0.062254086
148	0x3d9721d1	0.07379497
149	0xbc5c873f	-0.01345998
150	0x3c7a93b0	0.0152940005
151	0x3aacd8ad	0.0013187133
152	0x3c8a407e	0.016876455
153	0xbc8f6a0f	-0.017506627
154	0x3bf960e4	0.007610427
155	0x3bb6385f	0.005560919
156	0x3cb51a0e	0.02210715
157	0x3c4f05d8	0.012635671
158	0x3d13e529	0.036107216
159	0xbcbce59e	-0.023058709
160	0x3d36f4ea	0.044667162
161	0xbca1a41e	-0.019731577
162	0xbd59d167	-0.053178217
163	0xbd76c0b5	-0.060242373
164	0x3d61560b	0.055013698
165	0xbcfda7f0	-0.030963868
166	0x3c9dc90f	0.019260911
167	0x3d08ca79	0.033396218
168	0x3c0f7e91	0.008758203
169	0x3d8d678e	0.06904517
170	0xbc1c207d	-0.00952923
171	0x3cb0f2b8	0.021600112
172	0x3d4202a5	0.047365803
173	0x3cd75f98	0.0262907
174	0xbca10015	-0.01965336
175	0x3c439011	0.011936204
176	0xbcad96d0	-0.021190077
177	0x3bd7a8ee	0.0065814173
178	0x3cf04ddc	0.029334001
179	0xbcd9bbc0	-0.026578784
180	0x3c97def0	0.018538922
181	0x3d8b1d0b	0.06792649
182	0x3cf594dc	0.029978208
183	0x3d1ea20c	0.03872876
184	0xbc01b26c	-0.007916074
185	0xbca05c90	-0.019575387
186	0x3c6373b4	0.013882566
187	0xbcced3f0	-0.025247544
188	0x3cc9d0b7	0.024635656
189	0x3d741364	0.059588805
190	0xbd1edb59	-0.038783405
191	0x3cc4e7a6	0.02403624
192	0xbd4307bd	-0.0476148
193	0x3ce58862	0.028019134
194	0x3c7a88d3	0.0152914105
195	0x3c8f981f	0.017528592
196	0x3aa3fe6f	0.001251174
197	0x3a31beb1	0.00067804294
198	0x3d05de92	0.032682963
199	0x3bcc2325	0.0062297755
200	0xbcb3219e	-0.021866616
201	0xbc824575	-0.01590226
202	0x3d0573e9	0.032581244
203	0xbcaf9247	-0.021432055
204	0xbbca05e5	-0.0061652535
205	0xbd0670f0	-0.03282255
206	0xbc8996d4	-0.016795553
207	0xbd24dbf0	-0.04024881
208	0xbc55da7e	-0.013052581
209	0xbd3202ab	-0.043459576
210	0x3daaa836	0.08332865
211	0x3cebb8dc	0.028774671
212	0xbc966dab	-0.01836284
213	0xbd073bb2	-0.033015914
214	0x3d2f41ea	0.04278747
215	0xbc0941a8	-0.00837747
216	0xbc2e18b3	-0.010626006
217	0xbb0b49d3	-0.002125372
218	0xbd045964	-0.032311812
219	0xbc761a30	-0.015020892
220	0xbc9b5622	-0.01896197
221	0x3d517880	0.05114031
222	0x3d81ffe4	0.063476354
223	0x3cb9a7cf	0.022663025
224	0xbd146386	-0.036227725
225	0xbcbc3518	-0.022974536
226	0x39ecb39e	0.00045147253
227	0x3c3ef404	0.011654858
228	0xbcceb1a3	-0.025231188
229	0xbd04184a	-0.032249726
230	0xbcb507d1	-0.022098454
231	0x3c297892	0.010343688
232	0xbbf03c78	-0.007331427
233	0x3d408b8f	0.047008093
234	0x3be5297e	0.0069934716
235	0x3b4b724d	0.003104347
236	0xbd7d1fcd	-0.061797906
237	0x3cc04501	0.023470404
238	0xbba98db8	-0.005174365
239	0xbd0f6327	-0.03500667
240	0xb988a372	-0.00026061718
241	0xbd924302	-0.07141687
242	0xbb944d6b	-0.0045258305
243	0xbc6c5cb0	-0.014426395
244	0xbb94444e	-0.004524744
245	0xbc45edd7	-0.012080631
246	0x3c0857c8	0.00832171
247	0xbc999499	-0.018747615
248	0xbd2afce1	-0.04174507
249	0x3d8619de	0.065479025
250	0x3ca7797d	0.020443672
251	0x38dc403c	0.00010502382
252	0xbc6fd220	-0.0146375
253	0x3c1f1689	0.009709963
254	0xbd408da8	-0.047010094
255	0xbc6c3787	-0.014417536

herb_embedding.bias f4 [64]
0	0x3b6f565f	0.0036519987
1	0xba14ff4c	-0.0005683794
2	0xbbe83ac7	-0.007087085
3	0xbc1ccf56	-0.009570917
4	0xbc284858	-0.010271154
5	0xbc51ae0d	-0.012797845
6	0xbc7f7531	-0.015591905
7	0xbc26bf7b	-0.010177488
8	0x3c0f8112	0.0087588
9	0xbc4957c2	-0.0122889895
10	0xbb075e48	-0.0020655561
11	0x3cf62e39	0.030051338
12	0x3b255ef3	0.0025233596
13	0x3ba0101d	0.0048847334
14	0xbc1c2a7c	-0.009531613
15	0xbcbc2460	-0.022966564
16	0xbc8ae802	-0.016956333
17	0xbc4fc2d0	-0.012680724
18	0xbb8c39b0	-0.004279338
19	0x3c3d6e39	0.011561924
20	0xbbb6618c	-0.0055658277
21	0x3bd89335	0.0066093453
22	0x3c14d3d2	0.009083705
23	0xbbf682a1	-0.0075228964
24	0xbc1ebfe0	-0.009689301
25	0xbc56f95c	-0.013120975
26	0x3c4db728	0.012555875
27	0x3cd02a0b	0.025410673
28	0xbc8881c8	-0.016663447
29	0xbc00cca4	-0.00786129
30	0x3c28e98c	0.010309588
31	0x3c992124	0.01869256
32	0xbbc1e749	-0.005917464
33	0x3cfeed85	0.031119118
34	0xbb58479a	-0.0033001662
35	0xbb8f5773	-0.0043744384
36	0x3a6d9ba0	0.00090640225
37	0xbae79afa	-0.0017670088
38	0xbb6ca62f	-0.0036109795
39	0xbc8e7163	-0.017388051
40	0x3cbda43f	0.023149608
41	0x3bdd74e4	0.006758319
42	0xbcaf13fd	-0.021371836
43	0x3c3f06bb	0.0116593195
44	0x39ed87aa	0.0004530524
45	0x3c9ca2bc	0.019120567
46	0xbc89aed7	-0.016807003
47	0x3c9165d2	0.017748747
48	0x3ba25441	0.0049538915
49	0x3b55258c	0.00325236
50	0x3b15c69e	0.002285398
51	0x3c3201cf	0.010864689
52	0xbc2c507c	-0.010517236
53	0x3ca04bf5	0.01956747
54	0x3cc7ba4b	0.024380824
55	0x3c958705	0.018252859
56	0x3c5505c2	0.013001861
57	0xb9d7fcf2	-0.00041196455
58	0x3bf191f9	0.0073721376
59	0xbb92c794	-0.004479358
60	0xbc8b3f7e	-0.016998049
61	0x3b500267	0.0031739713
62	0xbc0e7f63	-0.008697364
63	0x3a992ba0	0.0011685975

symptom_embedding.weight f4 [64, 390]
0	0x3da0f648	0.078594744
1	0xbc99fff0	-0.018798798
2	0xbd0c3434	-0.034229472
3	0x3cc4b408	0.024011627
4	0xbbdda359	-0.0067638573
5	0xbc0bc6a5	-0.008531247
6	0x3c4be31d	0.012444285
7	0x3b85dd51	0.004085221
8	0xbd5b693e	-0.053567164
9	0xbd62844b	-0.055301946
10	0xbd933b05	-0.071889915
11	0xb992f3cf	-0.00028028942
12	0xbcc13891	-0.023586543
13	0xbba9ff8e	-0.005187935
14	0xbb815764	-0.0039471854
15	0x3caed879	0.021343457
16	0x3c7a2470	0.015267476
17	0xbd4dc916	-0.0502406
18	0xbc3a25d2	-0.011361556
19	0xbd5a68f1	-0.053322736
20	0xbc70ecba	-0.0147048775
21	0xbd7892c8	-0.060686857
22	0xbc924809	-0.017856615
23	0xbd2dfc11	-0.042476717
24	0x3d1ae3e3	0.037814986
25	0xbc901f7f	-0.017593144
26	0xbd40025f	-0.04687726
27	0xbcdef144	-0.027214654
28	0xbcd661fb	-0.026169768
29	0xbd8b5e62	-0.068051115
30	0xbd2ea993	-0.042642187
31	0xbce00a69	-0.027348714
32	0xbcfdcad8	-0.030980512
33	0x3cdb93e1	0.026803913
34	0x3cbe0e5b	0.023200205
35	0xbca258aa	-0.019817669
36	0xbbec6ff8	-0.007215496
37	0xbcc0bd14	-0.02352766
38	0x3db2c216	0.08728425
39	0x3d0d114c	0.034440324
40	0x3bc5dc04	0.006038191
41	0x3cb94ac5	0.02261866
42	0x3ca32ee9	0.01991983
43	0x3cf6e35a	0.030137707
44	0x3d070637	0.03296491
45	0xbd74efb6	-0.05979892
46	0xbd6a5afc	-0.057215676
47	0xbded7a83	-0.11595633
48	0xbcca2af9	-0.024678694
49	0x3b7f7337	0.0038978586
50	0xbcda6e33	-0.026663875
51	0xbd83036a	-0.063971356
52	0xbd1abff0	-0.037780702
53	0x39c79247	0.00038065223
54	0xbcdf7d4a	-0.027281422
55	0x3cbf6754	0.0233647
56	0xbd289734	-0.041159824
57	0x3ca6be93	0.020354545
58	0xbd3d37d1	-0.04619581
59	0x3d539ea9	0.051664982
60	0xbbfac3c5	-0.007652732
61	0x3c0df1d5	0.008663614
62	0xbd1cbfb6	-0.038268767
63	0x3c51bf74	0.012801994
64	0xbd1299cd	-0.035791207
65	0xb8ddca38	-0.000105757674
66	0x3ca65262	0.020302955
67	0x3c2869d1	0.010279135
68	0xbd2e0772	-0.04248757
69	0x3d07f4a0	0.033192277
70	0x3d98b6e0	0.07456756
71	0x3d782c58	0.060589164
72	0xbc1acfd3	-0.009448963
73	0x3d230b14	0.039805487
74	0xbd9455ae	-0.072429046
75	0xbd3db01c	-0.04631053
76	0x3d3257f1	0.0435409
77	0xbd961618	-0.07328433
78	0xbd51031c	-0.051028356
79	0xbd561aab	-0.052271526
80	0xbdce972e	-0.10087429
81	0x3c33cec3	0.010974589
82	0xbb28d9b7	-0.0025764534
83	0x3bf07620	0.0073383003
84	0xba443763	-0.000748506
85	0xbc783794	-0.01514997
86	0xbb8f594f	-0.00437466
87	0x3cff5d42	0.031172398
88	0x3d4e484b	0.050361913
89	0xbd8ff6ed	-0.07029519
90	0x3c1bb072	0.009502517
91	0x3c90c4df	0.017672
92	0x3d006758	0.031348556
93	0x3c08a41f	0.008339911
94	0x3c5d9368	0.013523914
95	0xbba2ed9d	-0.0049721734
96	0x3c3f1b2e	0.011664195
97	0x3d0dc2f4	0.03460975
98	0x3b891491	0.00418336
99	0x3d0048b5	0.03131934
100	0xbc84eff6	-0.016227704
101	0x3d0940d5	0.033509094
102	0xbcd5a330	-0.02607879
103	0xbd16a428	-0.036777645
104	0x3ba6beb0	0.0050886497
105	0xbd948ffc	-0.07254025
106	0x3d207065	0.039169688
107	0x3d0067d4	0.03134902
108	0xbd202cc0	-0.039105177
109	0x3c2e82d7	0.010651312
110	0xbcbb0526	-0.022829603
111	0x3d026791	0.03183705
112	0xbcc969cf	-0.024586586
113	0xbd8805d1	-0.066417344
114	0x3cd02380	0.025407553
115	0xbd107ab8	-0.035273284
116	0xbd189fb1	-0.03726167
117	0xbce6488e	-0.028110769
118	0xbd297f03	-0.041380893
119	0x3d00dd03	0.031460773
120	0x3d8566b1	0.065137275
121	0xbd69d88b	-0.057091277
122	0x3d0d6d70	0.034528196
123	0xbd2eeff5	-0.04270931
124	0x3bd773f7	0.0065751034
125	0xbd293eeb	-0.04131977
126	0x3d8c08fd	0.06837652
127	0xbd4a2170	-0.049348295
128	0x3d093f1f	0.033507463
129	0xbbc28752	-0.0059365416
130	0x3d655fb6	0.05599948
131	0xbc74dd2d	-0.014945311
132	0x3cb5adbf	0.022177575
133	0xbcdb43de	-0.02676576
134	0xbae43c98	-0.0017413078
135	0x3c201405	0.009770398
136	0x3d9cc372	0.07654466
137	0xbca0630c	-0.01957848
138	0xbce4cca6	-0.027929615
139	0xbb943b3e	-0.004523664
140	0x3d5f5cad	0.054531742
141	0x3cc5efef	0.02416226
142	0x3d39bf4a	0.045348443
143	0x3cc44151	0.023956927
144	0xbc43efb6	-0.011959007
145	0xbd8c5ac2	-0.06853248
146	0x3d009a11	0.03139693
147	0x3cc20e04	0.023688324
148	0xbd784639	-0.060613845
149	0x399ae956	0.00029547018
150	0xbd8f0d17	-0.069849186
151	0xbdc052e5	-0.09390811
152	0xbc8a5d86	-0.016890299
153	0x3d9d0b68	0.07668191
154	0xbbadb21f	-0.0053007747
155	0x3d4fd32b	0.050738495
156	0xbd3c4652	-0.0459655
157	0xbcabd48d	-0.020975376
158	0xbd3242aa	-0.043520607
159	0x3b77b0e3	0.0037794642
160	0x3d1c8849	0.03821591
161	0xbc9dd284	-0.01926542
162	0xbcfd8855	-0.030948797
163	0xbc45cb1b	-0.01207235
164	0xbd234ea9	-0.039869938
165	0x3c928d27	0.017889572
166	0xbd2e32da	-0.042528965
167	0x3d037e57	0.03210291
168	0x3bbbce21	0.0057313596
169	0x3ca7db2e	0.020490255
170	0xbc32b99e	-0.010908512
171	0x3c7a7b56	0.015288195
172	0x3c40e37b	0.011772986
173	0xbbc00e47	-0.005861077
174	0xbc2d08b1	-0.010561154
175	0x3c900583	0.017580753
176	0x3d111b47	0.035426404
177	0x3d662b22	0.05619348
178	0xbc9fda05	-0.01951314
179	0x3cf72018	0.03016667
180	0xbd103f49	-0.035216603
181	0x3c0c7049	0.008571693
182	0x3cffb3a5	0.03121359
183	0x3d9a426c	0.075322
184	0x3c548920	0.012972146
185	0xbc868dc0	-0.016425014
186	0x3d48f693	0.049063276
187	0xbbb1119c	-0.0054037105
188	0xbd0308d3	-0.031990837
189	0x3ad31287	0.0016103544
190	0x3d36dadc	0.044642314
191	0xbba935cc	-0.005163884
192	0x3b6982c1	0.0035630914
193	0x3cfcb61f	0.03084856
194	0xbdc0d8da	-0.09416361
195	0x3d4e8630	0.05042094
196	0x39e4e124	0.00043655292
197	0xbcb6c69c	-0.022311501
198	0xbd260273	-0.04052968
199	0x3d5cc16b	0.053895395
200	0xbb8211ae	-0.0039693927
201	0xbcab8ca0	-0.020941079
202	0xbccd4579	-0.025057541
203	0xbcfef28f	-0.03112152
204	0x3c60dceb	0.013724546
205	0x3cb07aa0	0.021542847
206	0x3c91968c	0.017771982
207	0x3d47d5f7	0.048788037
208	0x3c2bcaeb	0.010485391
209	0x3cff57a3	0.031169718
210	0xbc599a9b	-0.01328149
211	0x3d461a8d	0.048365165
212	0xbd90c5f0	-0.070690036
213	0x3cc05e59	0.023482488
214	0xbcaae53f	-0.020861266
215	0xbd68a5d5	-0.056798775
216	0xbe0f3fc6	-0.13989171
217	0xbc41521c	-0.011799362
218	0x3bfbf544	0.00768915
219	0x3c7d5fd4	0.015464742
220	0xbcf27079	-0.029594647
221	0x3d9d49b1	0.07680071
222	0x3d9651c8	0.07339817
223	0x3a8b940a	0.0010648977
224	0x3d1e8286	0.038698696
225	0xbc08e883	-0.008356216
226	0xbbb8f111	-0.0056439717
227	0xbbcbce32	-0.0062196488
228	0x3d107c46	0.035274766
229	0x3a9a9330	0.0011793133
230	0x3d3bd68a	0.045858897
231	0xbdc51620	-0.09623361
232	0x3c2a72f1	0.010403381
233	0x3c1c521c	0.009541061
234	0x3c80b9c8	0.015713587
235	0xbce23a1c	-0.0276156
236	0xbd2de60a	-0.04245571
237	0x3b8ba74b	0.0042618862
238	0x3ce234d6	0.027613085
239	0x3d83da7d	0.06438158
240	0xbc2416fb	-0.010015245
241	0x3d451aa1	0.0481211
242	0xbcd21e40	-0.02564919
243	0x3c0198e9	0.007909992
244	0x3d25a494	0.040440157
245	0x3d034f60	0.03205812
246	0xbbff0202	-0.007782222
247	0xbcd34b01	-0.0257926
248	0xbd4c17de	-0.04982745
249	0xbbbf7bcf	-0.0058436166
250	0x3d6fa3d4	0.058505848
251	0x3d2181cb	0.03943042
252	0xbd79ccbf	-0.060986277
253	0xbc8f5a97	-0.017499251
254	0x3d911e6e	0.07085882
255	0x3d006af3	0.031351995

symptom_embedding.bias f4 [64]
0	0xbb247f00	-0.0025100112
1	0xbcf514bf	-0.02991712
2	0xbc55ca32	-0.013048695
3	0x3bb63d53	0.0055615096
4	0x3c27db9f	0.010245233
5	0xbc8c6ca7	-0.017141653
6	0xbbf86764	-0.0075806845
7	0xbc0ee0b9	-0.00872057
8	0x3bc66943	0.0060550286
9	0x3c4dfccb	0.012572478
10	0xbb7de0c6	-0.0038738712
11	0xbca0bc20	-0.019620955
12	0x3c4cb566	0.012494421
13	0xbca2ebf2	-0.019887898
14	0xbc1e8413	-0.009675044
15	0xbcd8120a	-0.02637579
16	0xbc05c2d0	-0.008164123
17	0xbb293110	-0.0025816597
18	0xbb1ef184	-0.0024252841
19	0xbcc98d14	-0.024603404
20	0xbcd7e569	-0.026354508
21	0xbcab1457	-0.020883722
22	0x3bf738d6	0.007544617
23	0xbbc9f0c5	-0.006162735
24	0xbcf05c07	-0.029340757
25	0x3c6a04ff	0.014283418
26	0x3c4b491b	0.012407566
27	0x3beb17ea	0.0071744816
28	0xbc3a9535	-0.011388113
29	0x3c734c22	0.014849694
30	0x3b463e3e	0.0030249502
31	0x3b13794d	0.002250272
32	0x3c68fc7b	0.014220352
33	0x3c229b6e	0.009924753
34	0xbc7a9d2b	-0.015296261
35	0xbcec11d6	-0.028817099
36	0x3ce5b909	0.028042333
37	0x3cb5da89	0.022198932
38	0x3c600d02	0.013674976
39	0xbbc1402d	-0.005897543
40	0xbc9d7884	-0.019222505
41	0xbc13946c	-0.0090075545
42	0x3d1a98d1	0.037743393
43	0x3ae399cb	0.001736456
44	0x3cac6bf4	0.02104757
45	0x39f7eb81	0.00047286975
46	0x3bd4b89a	0.006491733
47	0xbc2c2cf1	-0.010508762
48	0xbcd9bcf6	-0.026579361
49	0xbba67d56	-0.005080859
50	0x3c0c9379	0.008580082
51	0x3a93ae3f	0.0011267139
52	0x3b2e87c2	0.002663121
53	0x3cee3498	0.029077813
54	0xba357c2a	-0.0006923104
55	0x3c45d4c5	0.012074654
56	0x3c96b9b2	0.018399093
57	0xbc343d63	-0.011000964
58	0x3bc4a2d1	0.0060008545
59	0xbb284a3b	-0.002567901
60	0xbadfaa5a	-0.0017064319
61	0xbc39688c	-0.01131643
62	0x3b7cd5f0	0.0038579665
63	0x3c497fec	0.012298565

herb_gat1.att_src f4 [1, 4, 16]
0	0x3ecb4c65	0.39706722
1	0xbf08b435	-0.53399974
2	0x3de93dfe	0.11388777
3	0xbe11f037	-0.14251791
4	0x3d822744	0.063551456
5	0x3e652058	0.2237562
6	0xbd1a723f	-0.03770661
7	0x3f0164a5	0.50544196
8	0x3e9e5a76	0.3092839
9	0x3eaecbd1	0.34139875
10	0x3ef0b428	0.47012448
11	0xbe4e8481	-0.20167734
12	0xbe11ab0c	-0.14225405
13	0x3e60f253	0.2196744
14	0xbdfa4fbc	-0.122222394
15	0xbe05a1b5	-0.13049968
16	0xbda62ca0	-0.0811398
17	0x3d2dbdf7	0.042417493
18	0xbd5bf91f	-0.053704377
19	0x3e225cbc	0.15855688
20	0xbed4be83	-0.415516
21	0x3ecfc488	0.4057963
22	0xbec5d511	-0.3863912
23	0x3f095c4e	0.5365647
24	0xbd38ab94	-0.045085505
25	0xbe80c797	-0.25152275
26	0x3eee4b11	0.46541646
27	0xbe9a0d5e	-0.30088323
28	0xbeb9c04b	-0.3627952
29	0xbe8ec5c7	-0.27885267
30	0x3ef4d033	0.47815093
31	0xbe850920	-0.25983524
32	0x3f003e5a	0.5009514
33	0xbee1f710	-0.44133806
34	0xbe85e790	-0.2615323
35	0x3ea37bd1	0.31930402
36	0x3ebad093	0.36487255
37	0xbe022d3e	-0.12712571
38	0xbb42c256	-0.0029717884
39	0x3caecf9c	0.02133923
40	0x3f04d001	0.5187989
41	0x3cdfd8ab	0.027324995
42	0xbeecb7b7	-0.46233913
43	0x3db46bee	0.088096485
44	0xbef6a6d6	-0.4817416
45	0xbeab2940	-0.3342991
46	0xbc88d371	-0.016702386
47	0x3e0132e2	0.12617067
48	0x3e9b60a8	0.3034718
49	0x3ec578b9	0.38568667
50	0xbeb9e9ca	-0.3631118
51	0xbed5377f	-0.41643903
52	0xbec26ee1	-0.3797522
53	0xbeedca07	-0.46443197
54	0xbe7ffe65	-0.24999388
55	0x3e6d5650	0.23177457
56	0x3de4a25a	0.111637786
57	0xbdb04e9c	-0.086087435
58	0xbed8bdd0	-0.42332315
59	0x3edd6747	0.43242857
60	0x3e8182e9	0.2529519
61	0xbeb4906b	-0.35266432
62	0xbeff211b	-0.49829945
63	0x3eec1fde	0.46118063

herb_gat1.att_dst f4 [1, 4, 16]
0	0x3ed98f32	0.42492062
1	0xbc1728de	-0.009226052
2	0x3eefe0ed	0.46851292
3	0xbe3da165	-0.18518598
4	0x3e0b5c46	0.13609418
5	0x3ea58bd4	0.32333243
6	0x3e45f043	0.19329934
7	0x3bdda266	0.006763744
8	0x3e91cc25	0.28476062
9	0x3d9c51a3	0.076327585
10	0xbef18bd4	-0.47176993
11	0x3df84b41	0.121237285
12	0x3ea89606	0.3292696
13	0xbdb9b685	-0.09068016
14	0xbcea9369	-0.028634744
15	0xbefc57e8	-0.49285817
16	0xbd161e16	-0.036649786
17	0x3e2f59c5	0.17124088
18	0xbe8632b9	-0.26210573
19	0x3d8bc3bd	0.068244435
20	0xbf027f04	-0.5097506
21	0xbe88bf34	-0.26708376
22	0x3d4d63a6	0.05014386
23	0x3e49fbb6	0.19724926
24	0x3e2f4bb9	0.1711873
25	0xbec8ad58	-0.3919475
26	0xbe53da3b	-0.20688717
27	0x3e04bf3c	0.12963575
28	0x3edeec6e	0.43539757
29	0xbf09cd40	-0.5382881
30	0x3e8aae15	0.2708594
31	0xbc6b3771	-0.01435648
32	0xbe9764dc	-0.29569137
33	0x3e931974	0.28730357
34	0xbebfd732	-0.37468868
35	0x3dd2c0bb	0.10290667
36	0xbe64bb6d	-0.22337122
37	0x3e4369db	0.1908335
38	0x3e4a7bad	0.19773741
39	0x3ebf63b3	0.37380752
40	0x3f0ce165	0.55031425
41	0xbe954964	-0.29157555
42	0xbe96fead	-0.29491177
43	0x3eae4811	0.34039357
44	0xbeb70b17	-0.35750648
45	0xbe995cf8	-0.29953742
46	0x3ef08238	0.4697435
47	0x3ed7097f	0.41999432
48	0xbecef858	-0.40423846
49	0x3efec798	0.49761653
50	0xbc0c32c0	-0.008557022
51	0xbdb79112	-0.08963217
52	0xbe9700df	-0.29492852
53	0xbef7a488	-0.48367715
54	0x3ea1d8a8	0.31610608
55	0xbecd8d41	-0.4014683
56	0xbdd9de2c	-0.10638079
57	0xbf1bdd9e	-0.60885036
58	0x3e50f3be	0.2040548
59	0x3edae8cb	0.42755732
60	0xbe44358f	-0.19161056
61	0x3e1ec447	0.15504561
62	0x3c061377	0.008183352
63	0xbe8833c0	-0.26601982

herb_gat1.bias f4 [64]
0	0xbcda6147	-0.026657714
1	0xbc5200b2	-0.012817549
2	0xba3ae9c1	-0.0007130169
3	0x3c33472c	0.010942262
4	0x3b1028ee	0.0021997052
5	0x3c93c38b	0.018037578
6	0xbb5e221c	-0.0033894842
7	0xbc476160	-0.012169212
8	0x3c0b8ada	0.0085169915
9	0xba977830	-0.0011556204
10	0x3bbf6948	0.005841408
11	0xbbb92cd5	-0.0056510963
12	0xbc54c7a4	-0.012987051
13	0x3c39da2c	0.01134352
14	0x3c5f22f2	0.013619171
15	0x3bc6b22e	0.006063721
16	0x3c9f97b2	0.019481514
17	0xbbe4038f	-0.006958432
18	0xbc70a043	-0.014686647
19	0xbc95fb3e	-0.018308278
20	0xbbd4fce0	-0.0064998716
21	0x3bc770d5	0.0060864487
22	0x3c2cf22f	0.010555788
23	0x3c9a4316	0.018830817
24	0x3c546094	0.012962479
25	0xbccb6310	-0.02482751
26	0x3ba1ec33	0.004941487
27	0x3a757062	0.00093627546
28	0x3c0dfc4f	0.008666112
29	0x3c452e0b	0.012034903
30	0xbc2c281d	-0.010507611
31	0x3bbf8fdf	0.005846008
32	0x3c2321f4	0.0099568255
33	0x3c91720e	0.01775458
34	0xbb0ca3a7	-0.002145985
35	0x3c237657	0.009976945
36	0xbba062a9	-0.0048945737
37	0x3c747e54	0.014922697
38	0x3c80ecdf	0.015737949
39	0x3ba109ac	0.004914483
40	0xbc3ec6bf	-0.011644064
41	0x3cb00a5e	0.021489318
42	0x3c543ae1	0.012953491
43	0x390911fc	0.00013072038
44	0x3a227814	0.00061977026
45	0x3c093a09	0.008375653
46	0x3c86801d	0.016418511
47	0xbc556d0a	-0.013026485
48	0x3c57c6e1	0.013169975
49	0xbc6ab52f	-0.014325424
50	0xbba365ce	-0.0049865013
51	0xbc467637	-0.012113146
52	0x3c5838b9	0.0131971175
53	0xbc04b6c3	-0.008100214
54	0x3b859f08	0.004077796
55	0xbc425e6d	-0.011863333
56	0x3c06a8d8	0.008218966
57	0x3c0ed4da	0.00871774
58	0xbccf2b71	-0.02528927
59	0x3bfc8025	0.0077057057
60	0xbcbb992e	-0.02290019
61	0x3cdf0d2e	0.027227964
62	0x3bc86d64	0.006116556
63	0xbc5dc25d	-0.013535109

herb_gat1.lin.weight f4 [64, 64]
0	0xbcaf21d1	-0.02137843
1	0xbafa0aa1	-0.0019076654
2	0x3d53dee3	0.051726233
3	0xbde99bd0	-0.11406672
4	0x3e2c744a	0.16841236
5	0x3e39287d	0.18081851
6	0x3e1cb738	0.15304267
7	0xbd99dee0	-0.07513213
8	0xbd22b65b	-0.03972469
9	0x3d6f35a0	0.05840075
10	0x3d9f8d01	0.07790566
11	0xbe38e8ba	-0.18057528
12	0x3d847066	0.06466751
13	0xbb917722	-0.0044392506
14	0xbd3a1b8d	-0.04543643
15	0xbda46981	-0.08027936
16	0x3dc08724	0.09400776
17	0x3c08af3c	0.00834256
18	0x3e0942a4	0.13404328
19	0x3c69686b	0.014246087
20	0x3e1ab3f0	0.15107703
21	0xbe47dbd6	-0.19517455
22	0xbe6f3dfc	-0.23363489
23	0xbdbb291a	-0.09138699
24	0xbe546472	-0.20741442
25	0x3e05a8e6	0.13052711
26	0xbca5781b	-0.020198872
27	0xbe18370a	-0.14864746
28	0x3e4e898d	0.20169659
29	0xbe0f1b4e	-0.1397526
30	0xbd82fb15	-0.06395546
31	0x3c6ddade	0.014517514
32	0x3df0c0bc	0.11755511
33	0xbd9cbc34	-0.076530844
34	0x3d728532	0.059209056
35	0x3d52be61	0.05145109
36	0xbdd3d473	-0.10343256
37	0x3e3f638f	0.18690322
38	0x3e14a799	0.14517058
39	0x3dd9e02d	0.10638461
40	0xbd128dcb	-0.035779756
41	0x3bf8ab45	0.0075887763
42	0x3d3c804a	0.046020783
43	0x3df29eb3	0.11846676
44	0x3d4dc965	0.050240893
45	0xbe09069b	-0.13381426
46	0x3e71a524	0.23598152
47	0x3d273f58	0.040831894
48	0xbe404454	-0.18776065
49	0x3bb0c7b8	0.005394902
50	0x3d5ccea7	0.053908017
51	0xbd16e9b0	-0.036843956
52	0x3e23aa1d	0.15982862
53	0xbd3822fe	-0.044955246
54	0x3cb1268f	0.021624831
55	0x3d430550	0.04761249
56	0xbdbf58ba	-0.09343095
57	0x3e1b367a	0.151575
58	0xbcd41dda	-0.02589314
59	0xbd8013eb	-0.06253799
60	0x3e66486d	0.22488566
61	0xbe040bc7	-0.12895118
62	0x3de76f53	0.1130053
63	0x3cbe2856	0.023212593
64	0x3d1a9588	0.03774026
65	0x3e1edad0	0.15513158
66	0xba0b17c3	-0.000530597
67	0x3d1590cb	0.03651504
68	0xbd4d05a6	-0.050054215
69	0x3e187bda	0.14890996
70	0xbe10e155	-0.14148457
71	0x3b7fec79	0.003905086
72	0x3e5d1d9e	0.2159333
73	0x3d592a59	0.0530189
74	0xbca1435c	-0.01968544
75	0x3ddfb88d	0.10923872
76	0xbe4a81f5	-0.19776137
77	0x3da5ad27	0.08089667
78	0x3cf62e1d	0.030051285
79	0xbdbe6716	-0.09297006
80	0xbdd83563	-0.10557058
81	0x3dc04ba7	0.093894295
82	0x3dbb4082	0.09143163
83	0x3c536548	0.012902565
84	0x3d062b7f	0.032756325
85	0xbe229546	-0.15877256
86	0x3e0a23b8	0.13490188
87	0xbe3d8653	-0.18508272
88	0xbe2c9f81	-0.16857721
89	0x3da07e9c	0.07836649
90	0xbba1ed0f	-0.0049415897
91	0xbdc6407d	-0.09680269
92	0xbd63d1d0	-0.055620015
93	0xbe33fa46	-0.1757594
94	0x3d1837bb	0.037162524
95	0xbd83550c	-0.06412706
96	0x3d9728ef	0.07380854
97	0xbde8b806	-0.11363225
98	0xbbabb7e4	-0.0052404273
99	0xbc8ff32a	-0.017572004
100	0xbdcafa10	-0.09910977
101	0x3df27253	0.11838212
102	0xbe17479d	-0.14773412
103	0xbe1f053c	-0.1552934
104	0xbda56aec	-0.08077034
105	0x3e3011a4	0.1719423
106	0x3e29c326	0.1657835
107	0x3df449fc	0.11928174
108	0x3c41a132	0.011818217
109	0x3d595ee0	0.053068995
110	0xbda76da4	-0.08175209
111	0xbe33bd5f	-0.17552708
112	0xbd47ada9	-0.0487496
113	0x3e28b9ee	0.16477177
114	0x3e181c0b	0.14854448
115	0xbe37ca41	-0.17948247
116	0xbda11519	-0.07865352
117	0xbc9d1150	-0.019173294
118	0x3d08d80f	0.033409175
119	0x3e277a40	0.16355228
120	0x3d7ffaf6	0.062495194
121	0x3e36d431	0.17854382
122	0xbca506c8	-0.020144835
123	0xbd12c960	-0.035836577
124	0xbe34ebb4	-0.17668039
125	0xbdb76069	-0.08953936
126	0x3da8b458	0.08237523
127	0xbcbbd91a	-0.02293067
128	0xbdf8dfb9	-0.12152047
129	0x3e100037	0.14062582
130	0xbde9fa0f	-0.11424648
131	0x3dd327e3	0.10310342
132	0xbd5ff301	-0.054675106
133	0xbe5e4aaa	-0.2170817
134	0xbda5b4ea	-0.08091147
135	0xbd668ee0	-0.0562886
136	0x3d60a6cc	0.05484657
137	0x3d5190a4	0.05116333
138	0xbe10be9c	-0.14135212
139	0xbe23cdc8	-0.15996468
140	0x3d2cd288	0.042192966
141	0xbd95fd0a	-0.07323654
142	0xbe28fbc2	-0.16502288
143	0x3e4cc866	0.19998321
144	0x3b18d766	0.0023321747
145	0x3e18dbba	0.14927569
146	0xbda9e7b1	-0.08296145
147	0x3e137415	0.1439975
148	0x3e03ccf8	0.12871158
149	0x3e093e6f	0.13402723
150	0xbdc2d5db	-0.09513446
151	0x3e40d04a	0.18829456
152	0xbe3c740c	-0.18403643
153	0x3d3fe522	0.046849377
154	0xbe157de9	-0.14598812
155	0x3cd55564	0.026041694
156	0xbe1471a2	-0.14496472
157	0x3e47b29e	0.19501731
158	0x3e08cb57	0.13358818
159	0x3dd3a179	0.10333533
160	0x3d47e485	0.048801918
161	0xbd73ac7a	-0.05949066
162	0xbcb4ff6e	-0.022094455
163	0xbe297344	-0.16547877
164	0x3e0adeef	0.13561605
165	0xbe2169a7	-0.1576296
166	0xbddbc1c3	-0.107303165
167	0xbd26a1b3	-0.040681552
168	0xbd585941	-0.052819494
169	0xbd8f9782	-0.0701132
170	0xbd3d9ffc	-0.04629515
171	0x3ca9db14	0.020734347
172	0x3e0f1f59	0.13976802
173	0x3cfd7ca1	0.030943217
174	0xbe097c94	-0.13426429
175	0x3e4c2c54	0.19938785
176	0xbd19ae82	-0.03751994
177	0x3af5fbd4	0.0018767067
178	0xbdd7ee8e	-0.105435476
179	0xbe0c90ec	-0.13727158
180	0x3cbbf0df	0.022942005
181	0x3c8f0124	0.017456599
182	0xbcf0c74d	-0.029391909
183	0xbdf5e308	-0.120061934
184	0xbdf48044	-0.11938527
185	0x3e16589c	0.1468224
186	0x3c10573f	0.008809864
187	0xbcca3da0	-0.024687588
188	0x3e32bd28	0.1745497
189	0xba8d5a45	-0.0010784349
190	0x3e364886	0.17801103
191	0xb91ca1b1	-0.00014937554
192	0x3dcdfb69	0.10057718
193	0xbd6c1f02	-0.05764676
194	0x3c5dcdb4	0.013537813
195	0xbd5eedfd	-0.054426182
196	0xbe3b9eed	-0.18322344
197	0x3afbd974	0.0019214586
198	0x3e4fbe86	0.20287523
199	0x3cc38a73	0.023869729
200	0x3d072420	0.032993436
201	0x3e149bda	0.14512578
202	0xbda21f4d	-0.079161264
203	0x3e3533db	0.17695563
204	0xbb4d3c39	-0.0031316413
205	0xbe2dae08	-0.16960919
206	0x3e5368ab	0.20645396
207	0xbd3fc9f2	-0.04682345
208	0xbd5d2a9b	-0.05399571
209	0xbe05b8e1	-0.13058807
210	0xbda9e424	-0.082954675
211	0xbdcf109a	-0.10110588
212	0x3d92f828	0.07176238
213	0x3d8852b6	0.06656401
214	0x3c71e8fb	0.0147650195
215	0xbdb13faa	-0.08654721
216	0xbe3ae459	-0.1825117
217	0x3d0e641b	0.034763437
218	0x3d9da33d	0.07697151
219	0x3cf7b9f8	0.030240044
220	0xbe2e107e	-0.16998479
221	0x3dc99ddd	0.09844563
222	0x3e1bab89	0.15202154
223	0x3e395aba	0.18101016
224	0x3d6e3b66	0.058162116
225	0xbd4fbde8	-0.050718218
226	0x3dc0bfcb	0.094115816
227	0x3ce208ff	0.02759218
228	0xbdd796ca	-0.105268076
229	0xbcbc6d15	-0.023001233
230	0x3c55e2dc	0.013054576
231	0xbcee3725	-0.02907903
232	0xbe090610	-0.13381219
233	0x3c44a53a	0.012002284
234	0xbbd3e946	-0.0064670173
235	0x3c9eadc4	0.019369967
236	0xbe140592	-0.1445525
237	0x3d4ba532	0.04971809
238	0x3e1c8e82	0.15288737
239	0xbca98d4f	-0.020697264
240	0x3d269e32	0.04067821
241	0x3d045304	0.032305732
242	0xbe15891c	-0.14603084
243	0x3e2616e7	0.16219674
244	0xbdc842a3	-0.09778335
245	0xbdf6a4ea	-0.120431736
246	0x3e026aa1	0.12735988
247	0x3e179b13	0.1480525
248	0xbdc6208e	-0.09674178
249	0xbe226051	-0.15857054
250	0x3cde711d	0.027153546
251	0xbe310bc7	-0.17289649
252	0x3e3404a3	0.17579894
253	0x3c6a2b77	0.014292589
254	0xbe1aa894	-0.1510337
255	0xbd456a09	-0.048196826

herb_gat2.att_src f4 [1, 4, 16]
0	0x3de4e0c9	0.11175687
1	0xbdd5c0e1	-0.10437179
2	0x3e25eb4d	0.16203041
3	0xbd005230	-0.03132838
4	0xbd838d74	-0.064234644
5	0xbddb7ac9	-0.10716779
6	0x3db414f7	0.08793061
7	0x3efc85fc	0.49320972
8	0xbd522d4a	-0.051312722
9	0x3ec7533a	0.38930684
10	0xbd73a30c	-0.059481665
11	0xbea9da05	-0.33174148
12	0xbedc5203	-0.4303132
13	0x3eceac7b	0.40365967
14	0xbe8aae72	-0.27086216
15	0x3e8a4d3b	0.27012047
16	0xbcd0f3cc	-0.025506876
17	0xbeb6b8db	-0.3568791
18	0xbd15f09a	-0.03660641
19	0x3f00c2ac	0.50297046
20	0xbe183b08	-0.14866269
21	0x3f0289f0	0.50991726
22	0xbe5de85d	-0.21670671
23	0xbcacd8b6	-0.02109943
24	0xbe6fe2a8	-0.23426306
25	0xbe9cb478	-0.30606437
26	0xbe8e77d3	-0.27825794
27	0xbe03e7dd	-0.12881418
28	0x3caef72d	0.021358097
29	0x3e8e52f2	0.27797657
30	0x3eaf1889	0.34198406
31	0xbeae9ea8	-0.3410542
32	0xbecf0ee8	-0.4044106
33	0x3ca43436	0.020044427
34	0xbe4036d2	-0.18770912
35	0xbda6d04f	-0.081452005
36	0xbf0668c5	-0.52503616
37	0x3d0270ee	0.03184598
38	0x3e8de072	0.277103
39	0x3e70b696	0.23507151
40	0x3d0ce05e	0.03439366
41	0x3edcd63d	0.431322
42	0x3c818362	0.015809719
43	0xbec7da17	-0.39033577
44	0x3d73e36b	0.059543055
45	0xbeb5b756	-0.35491437
46	0xbdd8efcf	-0.10592615
47	0x3ec97b87	0.39352056
48	0xbea675b2	-0.3251167
49	0x3eef3619	0.4672096
50	0x3ea12a63	0.3147765
51	0xbeeaa00a	-0.45825225
52	0xbed20be5	-0.410247
53	0xbef7be40	-0.48387337
54	0x3dd37345	0.1032472
55	0x3f03587e	0.51306903
56	0xbecb0e86	-0.39659518
57	0xbe9584c1	-0.29202846
58	0xbecdee25	-0.40220752
59	0x3eb778d4	0.35834372
60	0xbf06ca41	-0.52652365
61	0x3e264157	0.16235863
62	0xbcc9e950	-0.024647385
63	0xbeccb575	-0.3998219

herb_gat2.att_dst f4 [1, 4, 16]
0	0xbe238f39	-0.15972604
1	0x3e8cd860	0.2750883
2	0x3f05c36a	0.52251303
3	0xbe0ba95a	-0.13638821
4	0xbdcabeb6	-0.098996565
5	0xbd01fa7b	-0.031733017
6	0xbedf41aa	-0.43604785
7	0xbe8c07e4	-0.2734977
8	0xbd7929b1	-0.060830776
9	0xbc3d0b35	-0.0115383165
10	0xbeaa4f50	-0.33263636
11	0x3e00ee9c	0.12591022
12	0xbdcc5da6	-0.099787995
13	0x3ed53097	0.41638634
14	0xbef57703	-0.4794236
15	0xbd30cba2	-0.04316295
16	0x3e026452	0.12733582
17	0xbebf9ae7	-0.3742287
18	0xbe2c0817	-0.16799961
19	0xbe873764	-0.26409447
20	0xbe706c79	-0.23478879
21	0xbef84877	-0.48492786
22	0xbe5fc376	-0.21851906
23	0x3f070ff7	0.52758735
24	0xbeac3ed4	-0.33641684
25	0x3f02b376	0.51055086
26	0x3c75c90d	0.0150015475
27	0x3e45e7af	0.19326662
28	0x3e51b767	0.20480119
29	0xbd846131	-0.0646385
30	0x3eca32b9	0.39491823
31	0x3cbddee6	0.023177575
32	0xbe2e29c2	-0.17008117
33	0xbf04fbda	-0.51946795
34	0xbef66bd4	-0.4812914
35	0xbedc9a80	-0.43086624
36	0x3d1103a7	0.035403874
37	0x3efa4be4	0.48886025
38	0xbf0b1f3d	-0.5434454
39	0xbed65b91	-0.41866735
40	0xbe851bed	-0.25997868
41	0x3ec71f7d	0.3889121
42	0x3ebca2c1	0.3684292
43	0xbe6ea9ce	-0.23306963
44	0x3e6eb2d3	0.23310404
45	0x3e9bb7e0	0.30413723
46	0x3ef683bc	0.4814738
47	0x3d5c9f15	0.05386265
48	0xbdcd28ba	-0.100175336
49	0xbe1c1fca	-0.15246502
50	0xbe1921b4	-0.14954263
51	0x3b2e5112	0.0026598615
52	0xbee50017	-0.4472663
53	0x3f04baca	0.5184752
54	0x3dfa3af5	0.122182764
55	0x3ef541be	0.4790172
56	0x3da6466e	0.08118902
57	0xbea7829d	-0.32716838
58	0x3ea87592	0.329022
59	0x3e709750	0.23495221
60	0xbef4c597	-0.47807
61	0x3da0beae	0.07848869
62	0x3e1dd1c7	0.15412055
63	0x3ccf8c57	0.025335474

herb_gat2.bias f4 [64]
0	0x3c1f9049	0.00973899
1	0x3c899846	0.016796242
2	0xbbf3ac2b	-0.0074362955
3	0x3cffba4b	0.031216761
4	0x3d07ad34	0.033124164
5	0x3c1a42a2	0.009415301
6	0x3cf0db4b	0.029401442
7	0xbcb2df9c	-0.02183514
8	0x3ce6de71	0.02818224
9	0x3cd834ee	0.026392426
10	0xbc4abd57	-0.012374244
11	0xbb66391f	-0.0035129262
12	0x3c6060ee	0.013694985
13	0x3c82096b	0.015873631
14	0xbc2ee13f	-0.01067382
15	0xbce151ee	-0.027504887
16	0xbc00f0a1	-0.00786987
17	0x3ad6d45a	0.001639019
18	0xbcac46cc	-0.021029852
19	0x3c79f8b4	0.015257049
20	0xbc2df29f	-0.010616927
21	0x3bf9f49e	0.0076280376
22	0xbbf2f3b8	-0.0074143074
23	0xbd2c8474	-0.042118505
24	0x3b80589d	0.0039168135
25	0x3c3193fa	0.010838503
26	0xbc21427c	-0.009842511
27	0xbb146f8e	-0.00226495
28	0x3bd46b78	0.006482538
29	0xbc2b4b2d	-0.010454935
30	0xbc1d26d2	-0.009591775
31	0xbb2303ed	-0.0024874166
32	0xbb3b1b50	-0.0028550215
33	0xbd18b106	-0.037278198
34	0xbc5ae28e	-0.013359679
35	0xbcae8eb5	-0.021308282
36	0x3ca9c86a	0.020725448
37	0x3c24f79b	0.010068799
38	0xbd10d342	-0.03535772
39	0xbc1e355e	-0.009656278
40	0xbc1a5e64	-0.009421919
41	0x3c543c12	0.012953775
42	0x3ce20636	0.027590852
43	0x3c1a4273	0.009415257
44	0xbc8decf7	-0.017324908
45	0x3bccdb1e	0.0062517067
46	0x3c7d92e4	0.015476916
47	0x3c2c1342	0.010502638
48	0x3b8af19b	0.0042402274
49	0xbc3ae6ee	-0.011407597
50	0xbd06ebc6	-0.032939695
51	0x3ab2bccb	0.0013636587
52	0x3c957b3b	0.018247237
53	0x3c653db7	0.013991765
54	0x3c7b76d9	0.01534816
55	0x3c2f867f	0.010713219
56	0xbc01479d	-0.007890609
57	0x3ade1ad4	0.0016945251
58	0x3c3d69d5	0.011560877
59	0xbce52843	-0.0279733
60	0x3bedd689	0.0072582406
61	0x3cbcae6c	0.02303239
62	0x3a1d5062	0.00060010527
63	0xbbe37701	-0.0069416766

herb_gat2.lin.weight f4 [64, 64]
0	0xbde0fd8f	-0.109858625
1	0x3de3a35d	0.111151434
2	0x3d525b1c	0.05135642
3	0x3e1a877f	0.1509075
4	0xbd549985	-0.05190422
5	0x3cdf516e	0.027260508
6	0x3e024483	0.12721448
7	0xbe2fb69f	-0.17159508
8	0x3cf6fe1f	0.030150471
9	0x3d8e4d8b	0.06948384
10	0xbdeed7ce	-0.11662255
11	0xbc17c179	-0.009262436
12	0x3d8976ce	0.06712113
13	0x3e142a1d	0.1446919
14	0x3be89fcf	0.007099129
15	0xbe5216a5	-0.2051645
16	0x3e034bf9	0.1282195
17	0xbde82ff4	-0.11337271
18	0x3cef650d	0.02922299
19	0xbe029a45	-0.12754162
20	0xbe3e43bf	-0.1858053
21	0xbc256459	-0.0100947255
22	0x3d773b09	0.060359035
23	0x3e3dedbc	0.1854772
24	0x3c1f98b3	0.009740996
25	0xbde773d8	-0.11301392
26	0xbbd1fb9e	-0.006408169
27	0xbd68c38d	-0.056827117
28	0xbe041fb0	-0.12902713
29	0x3d61b5b8	0.05510494
30	0x3dd07b7a	0.10179801
31	0xbe065d04	-0.1312142
32	0xbdcd930e	-0.10037814
33	0xbe5ee197	-0.21765743
34	0x3d8c5a2f	0.06853139
35	0x3e27f1ad	0.16400786
36	0xbd70b330	-0.058764637
37	0x3e1b767d	0.15181918
38	0xbc817564	-0.015803047
39	0x3cc037cd	0.023464108
40	0xbdec911b	-0.11551114
41	0xbe1cd78e	-0.15316603
42	0xbcecb521	-0.028894963
43	0x3d05332d	0.03251951
44	0xbd658496	-0.056034647
45	0xbc0311f7	-0.007999889
46	0x3e357b7b	0.17722885
47	0x3e384f92	0.17999104
48	0xbc21069e	-0.009828238
49	0xbbfd9301	-0.0077384715
50	0xbdc72f51	-0.09725822
51	0xbe1b5dd2	-0.15172508
52	0xbbc2f15e	-0.0059491834
53	0xbd92fa43	-0.0717664
54	0xbaec83a2	-0.0018044601
55	0xbe0ea00e	-0.13928244
56	0xbb0834aa	-0.0020783343
57	0x3e017193	0.12640981
58	0xbe01ed01	-0.12688066
59	0xbe60a1e1	-0.21936752
60	0xbda219cf	-0.07915079
61	0xbd39b5ff	-0.04533958
62	0x3ddc9657	0.107708625
63	0xbdf504e1	-0.11963821
64	0xbd1b5f37	-0.0379326
65	0x3e5967c1	0.21230985
66	0xbd63211c	-0.055451497
67	0x3d81f67a	0.0634584
68	0x3e0fff5e	0.14062259
69	0x3cfde767	0.03099413
70	0xbe5e363a	-0.21700373
71	0xbc3584af	-0.0110789975
72	0x3e0560b1	0.13025166
73	0x3c34e082	0.011039855
74	0xbb327a56	-0.0027233562
75	0x3e14c2d7	0.1452745
76	0x3d9f025c	0.07764122
77	0x3d41e66e	0.047338895
78	0x3e3bfeb0	0.18358874
79	0x3e0f8d88	0.14018834
80	0x39d66efa	0.00040899945
81	0x3c6addf6	0.014335146
82	0xbd5acc60	-0.053417563
83	0x3e0aa082	0.13537791
84	0x3e24b99d	0.16086431
85	0xbe6965ec	-0.22792786
86	0xbe3720dc	-0.17883629
87	0xbd2488b6	-0.04016944
88	0x3d9322b2	0.07184352
89	0xbdbcf4f1	-0.09226406
90	0x3d60f78e	0.054923587
91	0x3d8f351d	0.069925524
92	0x3d9c01af	0.076175086
93	0x3dc7c9c1	0.097552784
94	0x3d67ba76	0.056574307
95	0xbcc26a3d	-0.023732299
96	0xbd0fb459	-0.035084102
97	0x3d869498	0.06571311
98	0x3d944417	0.072395496
99	0xbdf176a4	-0.11790207
100	0x3e072211	0.13196589
101	0x3e24f227	0.16107999
102	0x3e0a1736	0.13485417
103	0xbaab06c8	-0.0013048286
104	0x3dc99f51	0.0984484
105	0xbe6ba8be	-0.23013589
106	0x3c16f4c1	0.009213627
107	0xbd95bd4f	-0.073114984
108	0xbe055faf	-0.13024782
109	0x3de3e80b	0.11128243
110	0xbcbae91b	-0.022816231
111	0xbe6780a6	-0.22607669
112	0xbdc59cc3	-0.096490405
113	0xbc3e3f7f	-0.011611818
114	0x3e3ed401	0.1863556
115	0x3d71c26e	0.059023313
116	0x3dc2d538	0.095133245
117	0xbe1f774e	-0.15572855
118	0xbda4c522	-0.080454126
119	0xbe1155a0	-0.1419282
120	0x3c9a94c4	0.018869765
121	0x3dfaf1ee	0.12253176
122	0xbd9320f3	-0.07184019
123	0xbc436d8e	-0.011927975
124	0x3dedf4a6	0.116189286
125	0xbe3558f8	-0.1770972
126	0x3e300707	0.1719018
127	0xbe310c16	-0.17289767
128	0xbda0b0b8	-0.078462064
129	0x3e0c1854	0.13681155
130	0xbe45acc0	-0.1930418
131	0xbdd8f19a	-0.10592957
132	0xbde3ed3c	-0.11129233
133	0xbd375f56	-0.044768654
134	0x3e6bedea	0.23039976
135	0x3e4db6e8	0.20089304
136	0x3b85c7c8	0.0040826537
137	0x3e0fa179	0.1402644
138	0xbe054dfe	-0.13018033
139	0xbdafcf24	-0.08584431
140	0x3e441965	0.19150312
141	0x3de3d2d4	0.11124197
142	0xbdec2b9f	-0.115317576
143	0x3ce9e4ae	0.028551426
144	0x3d1cacb7	0.03825065
145	0xbe40b6f1	-0.18819787
146	0x3c0d1e43	0.008613172
147	0x3e5602f4	0.20899564
148	0xbdf6aa0d	-0.12044153
149	0x3d2b1740	0.04177022
150	0xbe2a4ddf	-0.16631268
151	0xbd6318fd	-0.055443753
152	0xbd9cd0c5	-0.07657007
153	0x3ba38c06	0.0049910573
154	0xbdd8b9f3	-0.10582342
155	0xbbb6b4dc	-0.0055757593
156	0xbd7684d5	-0.060185272
157	0x3e517148	0.2045337
158	0x3df655a6	0.12028055
159	0xbd9656bd	-0.07340763
160	0x3e2eb080	0.17059517
161	0xbd422a7f	-0.04740381
162	0xbda7d108	-0.081941664
163	0x3d23b704	0.03996946
164	0x3b9f4f26	0.00486173
165	0xbdccda89	-0.1000262
166	0xbe2991a2	-0.16559461
167	0xbe1906d5	-0.14944012
168	0x3cabc390	0.020967275
169	0xbd3f36f0	-0.04668325
170	0xbd8605b5	-0.06544057
171	0xbd8fef5e	-0.070280775
172	0x3e028661	0.12746574
173	0x3d06a05d	0.032867778
174	0x3e12c2df	0.1433215
175	0x3d38e879	0.04514358
176	0xbe0d2e9d	-0.13787313
177	0xbdf67904	-0.12034801
178	0x3d62a542	0.055333383
179	0xbd86c0e2	-0.06579758
180	0xbd452131	-0.048127357
181	0x3e436d63	0.19084696
182	0x3e097c9d	0.13426442
183	0xbe092ce1	-0.13396026
184	0xbe3bd61e	-0.18343398
185	0x3cacdb60	0.0211007
186	0xbd94eaa1	-0.072713144
187	0xbda5725c	-0.08078453
188	0xbdd32d02	-0.10311319
189	0xbe23fc04	-0.16014105
190	0xbe2a8128	-0.16650832
191	0x3da89ffd	0.0823364
192	0x3ddec532	0.10877456
193	0xbd4cc7cc	-0.04999523
194	0xbdaa3049	-0.08309991
195	0x3e1e3497	0.15449749
196	0x3e08c1cb	0.13355176
197	0xbddb22ce	-0.10699998
198	0xbcb7cae7	-0.022435619
199	0x3e15c125	0.1462446
200	0x3e2e6750	0.17031598
201	0x3de89022	0.11355616
202	0x3e2ceda4	0.16887528
203	0xbe283290	-0.16425538
204	0xbc97be7b	-0.018523445
205	0x3e8315bc	0.2560252
206	0xbe3581c1	-0.17725278
207	0x3d9c3f9e	0.076293215
208	0x3e1ef620	0.15523577
209	0x3dca5e39	0.09881253
210	0xbd9d8b72	-0.07692613
211	0xbac4d6d2	-0.0015017635
212	0x3e419be0	0.18907118
213	0x3e5df5f2	0.21675852
214	0x3e27d5a3	0.1639009
215	0x3db3753a	0.087625936
216	0x3dbaba6f	0.09117591
217	0xbe0bda5e	-0.13657519
218	0xbda558b5	-0.0807356
219	0xbe238c93	-0.15971594
220	0x3e314417	0.1731113
221	0x3d111f0c	0.03543
222	0xbd1d2328	-0.038363606
223	0x3e0fa666	0.1402832
224	0x3df5c7a3	0.12000968
225	0x3e76b0af	0.24090837
226	0x3c5838cc	0.013197135
227	0x3e30c27f	0.17261694
228	0xbe702151	-0.23450209
229	0x3e44f20a	0.19232956
230	0x3d613bf4	0.054988816
231	0x3da46c1e	0.08028434
232	0xbd709695	-0.058737356
233	0x3e316a36	0.17325673
234	0xbe559d17	-0.20860706
235	0x3e44dafe	0.19224164
236	0xbd10844c	-0.035282418
237	0x3d1a2887	0.037636306
238	0x3d7e22d1	0.062044922
239	0xbd4fe730	-0.050757587
240	0xbd79730d	-0.060900737
241	0xbd50f279	-0.05101249
242	0xbe229b78	-0.15879619
243	0x3cd612bf	0.026131986
244	0x3d50ace7	0.050946143
245	0x3e21be5c	0.15795273
246	0x3bbb0673	0.005707556
247	0xbdbac25c	-0.09119102
248	0x3e3f8716	0.18703875
249	0xbdb31ba7	-0.08745509
250	0xbe6387d0	-0.22219777
251	0xbe5405d3	-0.20705347
252	0xbe09cc0b	-0.13456742
253	0x3e25bfe4	0.16186482
254	0x3e1e9247	0.15485488
255	0x3de2d212	0.11075224

symptom_gat1.att_src f4 [1, 4, 16]
0	0xbe09d2b4	-0.13459283
1	0xbeeb6993	-0.45978984
2	0xbf003adb	-0.50089806
3	0x3f0a2bb6	0.5397295
4	0xbe9a0cd8	-0.30087924
5	0x3f1093da	0.56475604
6	0x3e642adb	0.22281973
7	0x3e7041bd	0.23462577
8	0x3e9e7234	0.30946505
9	0xbe13a461	-0.14418174
10	0xbec459d0	-0.38349771
11	0xbe665ced	-0.22496386
12	0xbebe2e4d	-0.371447
13	0xbe1f9316	-0.15583453
14	0x3c95a508	0.01826717
15	0x3e2e58bf	0.17026041
16	0xbeb8be73	-0.360828
17	0xbee58f61	-0.44835952
18	0xbe661298	-0.2246803
19	0x3dd9cd49	0.10634858
20	0x3e3304a7	0.17482243
21	0xbeb4b006	-0.35290545
22	0x3f0274ab	0.5095927
23	0x3f0b7be6	0.5448593
24	0xbeff9c7d	-0.4992408
25	0x3dc5038d	0.09619818
26	0x3c808812	0.015689883
27	0xbdd2306b	-0.10263141
28	0x3bd0d68a	0.0063732313
29	0x3e8ef8b3	0.27924117
30	0xbec80783	-0.3906823
31	0x3ea433cb	0.32070765
32	0xbed9145f	-0.42398354
33	0xbe9ed21a	-0.3101967
34	0x3e9a56fe	0.30144495
35	0xbac3d19c	-0.0014939788
36	0x3ef88f07	0.4854662
37	0xbf02a83a	-0.51037943
38	0xbe8b45a4	-0.2720157
39	0xbe0ba3b2	-0.13636664
40	0xbed43e96	-0.41454
41	0xbe8a734e	-0.27041095
42	0x3f06b836	0.52624834
43	0x3db5d5c4	0.08878663
44	0xbc5e98cf	-0.013586237
45	0xbe9a0f4f	-0.30089805
46	0x3f01e23c	0.5073583
47	0xbe621305	-0.22077568
48	0xbe1e4329	-0.15455307
49	0xbee474d0	-0.4462037
50	0xbe40a8d9	-0.1881441
51	0xbd84d9f1	-0.064868815
52	0x3e5c2577	0.21498667
53	0xbe218703	-0.15774159
54	0x3ec0f383	0.37685785
55	0x3ef62560	0.4807539
56	0x3ebf0a0e	0.3731236
57	0x3f06e4fa	0.5269314
58	0xbedd87d5	-0.43267694
59	0x3ed2ea98	0.41194606
60	0x3eb26e69	0.3484986
61	0x3ee1ec0a	0.44125396
62	0x3d765e54	0.060148552
63	0x3e1b5048	0.15167344

symptom_gat1.att_dst f4 [1, 4, 16]
0	0xbe920ca2	-0.28525263
1	0x3c94d98b	0.018170139
2	0x3e722e40	0.23650455
3	0xbe893f58	-0.2680614
4	0x3e64b24f	0.22333644
5	0xbdab7d42	-0.083735004
6	0x3e309ea7	0.17248021
7	0x3edda644	0.43290913
8	0x3e626733	0.2210968
9	0x3e32a98e	0.17447492
10	0xbf00979a	-0.50231326
11	0x3eec046c	0.46097124
12	0x3e560ff4	0.20904523
13	0x3e99387f	0.29925916
14	0xbef95bbc	-0.487028
15	0xbee57c76	-0.4482152
16	0xbea98b7f	-0.3311424
17	0xbeea9aac	-0.4582113
18	0xbe9ee9e7	-0.31037828
19	0xbe94ce00	-0.29063416
20	0x3f05bf57	0.52245086
21	0x3e6fa4f0	0.23402762
22	0x3eed64f0	0.46366072
23	0x3d0f9d46	0.035062097
24	0xbec93de8	-0.39305043
25	0xbea05473	-0.3131443
26	0x3e940f7c	0.28918064
27	0xbe7843fe	-0.24244687
28	0xbeca82c0	-0.3955288
29	0xbdf10b99	-0.1176979
30	0xbef6cf8c	-0.4820522
31	0xbc3bad23	-0.011454853
32	0x3eed0bf7	0.4629819
33	0x3edccc1a	0.43124467
34	0x3ea61a5f	0.32441995
35	0xbe480d34	-0.19536287
36	0xbf0e4382	-0.5557176
37	0xbf0f8802	-0.56066906
38	0x3ef9becc	0.4877838
39	0xbe8a66cd	-0.27031556
40	0x3e9458e8	0.2897408
41	0xbf088537	-0.5332827
42	0xbed16788	-0.408993
43	0xbdc75ef8	-0.09734911
44	0x3ef902a1	0.48634818
45	0x3bd42774	0.0064744297
46	0x3e05d9d2	0.13071373
47	0xbf0effa8	-0.5585885
48	0x3e85ec6e	0.26156944
49	0x3de5c647	0.11219459
50	0xbd61106d	-0.054947305
51	0x3e59687e	0.21231267
52	0x3eb7b2f2	0.35878712
53	0x3e9922dc	0.29909408
54	0xbed03fe4	-0.40673745
55	0xbef4234d	-0.47683182
56	0xbe8e58a2	-0.27801996
57	0xbe66169d	-0.22469564
58	0xbe2909c8	-0.16507638
59	0x3e341587	0.17586337
60	0xbc3ae55c	-0.011407223
61	0x3ef838f4	0.48480952
62	0xbe1a83f4	-0.15089399
63	0xbe8851cb	-0.26624903

symptom_gat1.bias f4 [64]
0	0x3c3cd335	0.011524965
1	0xbc6242ca	-0.013809869
2	0xbc34f865	-0.01104555
3	0xbbf53afa	-0.007483837
4	0xbc67c66b	-0.014146428
5	0x3b1b6078	0.0023708623
6	0x3c39df7b	0.011344786
7	0x3b82ccbf	0.003991693
8	0x3d0022fb	0.03128336
9	0xbba878eb	-0.0051413677
10	0xbc72ea3d	-0.014826355
11	0x3bbe7c9e	0.0058131954
12	0xbb65482c	-0.0034985645
13	0xbb28134b	-0.0025646265
14	0xbb0a63c5	-0.0021116596
15	0xbc39b065	-0.01133356
16	0xbca69fee	-0.020339932
17	0x3c7dc5b0	0.015489027
18	0x3b93e9bb	0.004513947
19	0xbc82335b	-0.015893629
20	0x3bd3cde1	0.0064637517
21	0x3c01598a	0.007894883
22	0xbc908b48	-0.01764454
23	0xbbd7f267	-0.006590176
24	0x3c823c3a	0.015897859
25	0x3b015288	0.001973303
26	0xbabfa322	-0.0014620761
27	0xbb8ca862	-0.0042925337
28	0x3bcdb5a9	0.006277759
29	0x3c7c9d55	0.01541837
30	0x3bc1c9bb	0.0059139407
31	0x3bf90801	0.007599831
32	0x3b99d414	0.004694471
33	0xbb463cf4	-0.0030248733
34	0xbd0abc01	-0.0338707
35	0x3a8f783a	0.0010945864
36	0xbc01ffcc	-0.007934522
37	0xbc1d7875	-0.009611239
38	0x3baa19d4	0.0051910672
39	0x3c1211c2	0.008915367
40	0x3b5a2495	0.0033285965
41	0x3c33355e	0.010938017
42	0xbc23e382	-0.010002973
43	0x3ad9112f	0.0016560907
44	0xbcb6b264	-0.02230186
45	0x3c08b9d2	0.008345084
46	0xbc3b473b	-0.011430557
47	0xbbc667c3	-0.00605485
48	0x3b8876a8	0.0041645356
49	0x3c175df5	0.00923871
50	0xbc435ebc	-0.011924442
51	0xbb117623	-0.002219566
52	0x39144d90	0.00014143274
53	0xbc6945d4	-0.01423784
54	0xbb9fd1a9	-0.0048772884
55	0x3c7e2c36	0.01551347
56	0xbb7da2da	-0.0038701803
57	0x3c86f50c	0.01647427
58	0x3c643df5	0.013930787
59	0x3c2e999e	0.010656742
60	0xba22417d	-0.0006189568
61	0xbb95df8e	-0.004573769
62	0x3c357901	0.011076213
63	0xb9be16fe	-0.00036256755
